Illustrative example 3 a 6-Story hotel building with recorded seismic responses/exp_CSNN_1layer_3state_3neuron1_10000_loss9413ep3.pt (torch, 2455 bytes, 5 tensors)

StateNet_non.0.weight f4 [3, 4]
-12.981991 3.8875103 -0.59435916 -1.1428227 -24.50302 -4.2475467 -7.362074 -2.3496242
6.1639204 -5.743101 -1.6070466 0.5473249
00000000: 3cb6 4fc1 f8cc 7840 ec27 18bf 0448 92bf
00000010: 2f06 c4c1 e7eb 87c0 1c96 ebc0 3e60 16c0
00000020: d63e c540 7cc7 b7c0 b4b3 cdbf 7c1d 0c3f

StateNet_non.2.weight f4 [3, 3]
-29.666277 13.56051 -26.526754 -1.4650813 7.0867844 -0.60864884 0.083501406 -11.491822
0.6534387
00000000: 8954 edc1 d9f7 5841 cb36 d4c1 c987 bbbf
00000010: f0c6 e240 69d0 1bbf c902 ab3d 81de 37c1
00000020: c247 273f

StateNet_lin.weight f4 [3, 4]
43.154423 -12.035354 13.157837 14.785854 -16.701683 2.9054751 3.012788 -12.090941
-5.9135184 -19.248857 0.53036034 -1.6013762
00000000: 219e 2c42 cf90 40c1 8086 5241 dc92 6c41
00000010: 0c9d 85c1 4ef3 3940 85d1 4040 7f74 41c1
00000020: 8b3b bdc0 a9fd 99c1 b2c5 073f e5f9 ccbf

OutputNet_non.0.weight f4 [1, 4]
32.900543 7.100406 9.981536 2.6386483
00000000: 289a 0342 8736 e340 5fb4 1f41 9ddf 2840

OutputNet_lin.weight f4 [1, 4]
-42.36646 -170.89105 -32.544453 49.501797
00000000: 4177 29c2 1ce4 2ac3 852d 02c2 d701 4642
