Illustrative example 1 Shear Zener model of viscoelastic dampers/Zener_CSNN_2layer1_2state_2neuron1_6000_10s_loss2834em1.pt (torch, 2771 bytes, 6 tensors)

StateNet_non.0.weight f4 [2, 3]
-0.09273112 0.028762644 0.6502879 -0.09752287 -0.17525887 0.56050146
00000000: d0e9 bdbd a39f eb3c 4579 263f 12ba c7bd
00000010: 1077 33be 067d 0f3f

StateNet_non.2.weight f4 [2, 2]
0.9285171 1.3404669 1.1489584 1.131745
00000000: 4cb3 6d3f 6b94 ab3f 1211 933f 05dd 903f

StateNet_non.4.weight f4 [2, 2]
2.965722 3.2103531 -6.0875683 -6.693375
00000000: 64ce 3d40 6d76 4d40 5ccd c2c0 2130 d6c0

StateNet_lin.weight f4 [2, 3]
-1.2252129 -2.1972888 2.607915 1.544363 0.20585765 -2.982574
00000000: c7d3 9cbf 61a0 0cc0 14e8 2640 b0ad c53f
00000010: 59cc 523e 7ee2 3ec0

OutputNet_non.0.weight f4 [1, 3]
0.2649811 2.1913443 -0.35153857
00000000: 9aab 873e fc3e 0c40 ddfc b3be

OutputNet_lin.weight f4 [1, 3]
1.8531957 3.9018235 -4.4795074
00000000: 8435 ed3f 7ab7 7940 2058 8fc0
