Illustrative example 2 Nonlinear system subjected to acceleration excitation/num_CSNN_2layer1_2state_2neuron1_3000_loss5316em2.pt (torch, 2771 bytes, 6 tensors)

StateNet_non.0.weight f4 [2, 3]
000000 e5 9f 7e bc 07 47 51 c0 da 9a 36 c0 cb e3 c2 bc
       -0.0155410515 -3.2699602 -2.8532014 -0.02379026
000010 1a 60 d5 bf 02 c1 06 40
       -1.6669953 2.1055303

StateNet_non.2.weight f4 [2, 2]
000000 1c f8 f2 bf 9f 84 13 3f 26 38 34 c0 60 a0 84 be
       -1.8981967 0.5762424 -2.815927 -0.25903606

StateNet_non.4.weight f4 [2, 2]
000000 fe 0e 46 3e ba 52 32 40 40 7b d2 bf ea fd 07 c0
       0.19341657 2.7862992 -1.6443863 -2.1248727

StateNet_lin.weight f4 [2, 3]
000000 f1 74 1c be e6 fe c4 bf b6 34 e4 3f a9 9a f4 3d
       -0.15278985 -1.5390289 1.7828586 0.119435616
000010 b9 0e ee bf 60 b0 1a bf
       -1.8598243 -0.60425377

OutputNet_non.0.weight f4 [1, 3]
000000 d4 00 9f bc 92 d4 55 3f e2 75 67 bf
       -0.019409575 0.8352748 -0.9041425

OutputNet_lin.weight f4 [1, 3]
000000 b1 6f 8e 3c 07 9d 16 3e 68 c9 c6 3d
       0.017387243 0.14708339 0.09706384
